…
I0316 09:48:09.270031 22644 net.cpp:313] The NetState phase (0) differed from the phase (1) specified by a rule in layer accuracy
I0316 09:48:09.270455 22644 net.cpp:49] Initializing net from parameters: 
name: "AlexNet"
state {
  phase: TRAIN
}
layer {
  name: "data"
  type: "Data"
  top: "data"
  top: "label"
  include {
    phase: TRAIN
  }
  transform_param {
    mirror: true
    crop_size: 227
    mean_file: "data/ilsvrc12/imagenet_mean.binaryproto"
  }
  data_param {
    source: "examples/imagenet/ilsvrc12_train_lmdb"
    batch_size: 256
    backend: LMDB
  }
}
layer {
  name: "conv1"
  type: "Convolution"
  bottom: "data"
  top: "conv1"
  param {
    lr_mult: 1
    decay_mult: 1
  }
  param {
    lr_mult: 2
    decay_mult: 0
  }
  convolution_param {
    num_output: 96
    kernel_size: 11
    stride: 4
    weight_filler {
      type: "gaussian"
      std: 0.01
    }
    bias_filler {
      type: "constant"
      value: 0
    }
  }
}
layer {
  name: "relu1"
  type: "ReLU"
  bottom: "conv1"
  top: "conv1"
}
layer {
  name: "norm1"
  type: "LRN"
  bottom: "conv1"
  top: "norm1"
  lrn_param {
    local_size: 5
    alpha: 0.0001
    beta: 0.75
  }
}
layer {
  name: "pool1"
  type: "Pooling"
  bottom: "norm1"
  top: "pool1"
  pooling_param {
    pool: MAX
    kernel_size: 3
    stride: 2
  }
}
layer {
  name: "conv2"
  type: "Convolution"
  bottom: "pool1"
  top: "conv2"
  param {
    lr_mult: 1
    decay_mult: 1
  }
  param {
    lr_mult: 2
    decay_mult: 0
  }
  convolution_param {
    num_output: 256
    pad: 2
    kernel_size: 5
    group: 2
    weight_filler {
      type: "gaussian"
      std: 0.01
    }
    bias_filler {
      type: "constant"
      value: 0.1
    }
  }
}
layer {
  name: "relu2"
  type: "ReLU"
  bottom: "conv2"
  top: "conv2"
}
layer {
  name: "norm2"
  type: "LRN"
  bottom: "conv2"
  top: "norm2"
  lrn_param {
    local_size: 5
    alpha: 0.0001
    beta: 0.75
  }
}
layer {
  name: "pool2"
  type: "Pooling"
  bottom: "norm2"
  top: "pool2"
  pooling_param {
    pool: MAX
    kernel_size: 3
    stride: 2
  }
}
layer {
  name: "conv3"
  type: "Convolution"
  bottom: "pool2"
  top: "conv3"
  param {
    lr_mult: 1
    decay_mult: 1
  }
  param {
    lr_mult: 2
    decay_mult: 0
  }
  convolution_param {
    num_output: 384
    pad: 1
    kernel_size: 3
    weight_filler {
      type: "gaussian"
      std: 0.01
    }
    bias_filler {
      type: "constant"
      value: 0
    }
  }
}
layer {
  name: "relu3"
  type: "ReLU"
  bottom: "conv3"
  top: "conv3"
}
layer {
  name: "conv4"
  type: "Convolution"
  bottom: "conv3"
  top: "conv4"
  param {
    lr_mult: 1
    decay_mult: 1
  }
  param {
    lr_mult: 2
    decay_mult: 0
  }
  convolution_param {
    num_output: 384
    pad: 1
    kernel_size: 3
    group: 2
    weight_filler {
      type: "gaussian"
      std: 0.01
    }
    bias_filler {
      type: "constant"
      value: 0.1
    }
  }
}
layer {
  name: "relu4"
  type: "ReLU"
  bottom: "conv4"
  top: "conv4"
}
layer {
  name: "conv5"
  type: "Convolution"
  bottom: "conv4"
  top: "conv5"
  param {
    lr_mult: 1
    decay_mult: 1
  }
  param {
    lr_mult: 2
    decay_mult: 0
  }
  convolution_param {
    num_output: 256
    pad: 1
    kernel_size: 3
    group: 2
    weight_filler {
      type: "gaussian"
      std: 0.01
    }
    bias_filler {
      type: "constant"
      value: 0.1
    }
  }
}
layer {
  name: "relu5"
  type: "ReLU"
  bottom: "conv5"
  top: "conv5"
}
layer {
  name: "pool5"
  type: "Pooling"
  bottom: "conv5"
  top: "pool5"
  pooling_param {
    pool: MAX
    kernel_size: 3
    stride: 2
  }
}
layer {
  name: "fc6"
  type: "KroneckerProduct"
  bottom: "pool5"
  top: "fc6"
  param {
    lr_mult: 1
    decay_mult: 1
  }
  param {
    lr_mult: 2
    decay_mult: 0
  }
  kronecker_product_param {
    num_output: 4096
    weight_filler {
      type: "gaussian"
      std: 0.005
    }
    bias_filler {
      type: "constant"
      value: 0.1
    }
  }
}
layer {
  name: "relu6"
  type: "ReLU"
  bottom: "fc6"
  top: "fc6"
}
layer {
  name: "fc7"
  type: "KroneckerProduct"
  bottom: "fc6"
  top: "fc7"
  param {
    lr_mult: 1
    decay_mult: 1
  }
  param {
    lr_mult: 2
    decay_mult: 0
  }
  kronecker_product_param {
    num_output: 4096
    weight_filler {
      type: "gaussian"
      std: 0.005
    }
    bias_filler {
      type: "constant"
      value: 0.1
    }
  }
}
layer {
  name: "relu7"
  type: "ReLU"
  bottom: "fc7"
  top: "fc7"
}
layer {
  name: "fc8"
  type: "InnerProduct"
  bottom: "fc7"
  top: "fc8"
  param {
    lr_mult: 1
    decay_mult: 1
  }
  param {
    lr_mult: 2
    decay_mult: 0
  }
  inner_product_param {
    num_output: 1000
    weight_filler {
      type: "gaussian"
      std: 0.01
    }
    bias_filler {
      type: "constant"
      value: 0
    }
  }
}
layer {
  name: "loss"
  type: "SoftmaxWithLoss"
  bottom: "fc8"
  bottom: "label"
  top: "loss"
}
I0316 09:48:09.270722 22644 layer_factory.hpp:77] Creating layer data
I0316 09:48:09.271708 22644 net.cpp:91] Creating Layer data
I0316 09:48:09.271744 22644 net.cpp:399] data -> data
I0316 09:48:09.271800 22644 net.cpp:399] data -> label
I0316 09:48:09.271834 22644 data_transformer.cpp:25] Loading mean file from: data/ilsvrc12/imagenet_mean.binaryproto
I0316 09:48:09.271889 22648 db_lmdb.cpp:38] Opened lmdb examples/imagenet/ilsvrc12_train_lmdb
I0316 09:48:09.274967 22644 data_layer.cpp:41] output data size: 256,3,227,227
I0316 09:48:09.484940 22644 net.cpp:141] Setting up data
I0316 09:48:09.485002 22644 net.cpp:148] Top shape: 256 3 227 227 (39574272)
I0316 09:48:09.485010 22644 net.cpp:148] Top shape: 256 (256)
I0316 09:48:09.485016 22644 net.cpp:156] Memory required for data: 158298112
I0316 09:48:09.485034 22644 layer_factory.hpp:77] Creating layer conv1
I0316 09:48:09.485077 22644 net.cpp:91] Creating Layer conv1
I0316 09:48:09.485090 22644 net.cpp:425] conv1 <- data
I0316 09:48:09.485111 22644 net.cpp:399] conv1 -> conv1
I0316 09:48:09.486603 22644 net.cpp:141] Setting up conv1
I0316 09:48:09.486619 22644 net.cpp:148] Top shape: 256 96 55 55 (74342400)
I0316 09:48:09.486625 22644 net.cpp:156] Memory required for data: 455667712
I0316 09:48:09.486649 22644 layer_factory.hpp:77] Creating layer relu1
I0316 09:48:09.486661 22644 net.cpp:91] Creating Layer relu1
I0316 09:48:09.486671 22644 net.cpp:425] relu1 <- conv1
I0316 09:48:09.486680 22644 net.cpp:386] relu1 -> conv1 (in-place)
I0316 09:48:09.486701 22644 net.cpp:141] Setting up relu1
I0316 09:48:09.486711 22644 net.cpp:148] Top shape: 256 96 55 55 (74342400)
I0316 09:48:09.486718 22644 net.cpp:156] Memory required for data: 753037312
I0316 09:48:09.486724 22644 layer_factory.hpp:77] Creating layer norm1
I0316 09:48:09.486745 22644 net.cpp:91] Creating Layer norm1
I0316 09:48:09.486752 22644 net.cpp:425] norm1 <- conv1
I0316 09:48:09.486763 22644 net.cpp:399] norm1 -> norm1
I0316 09:48:09.486783 22644 net.cpp:141] Setting up norm1
I0316 09:48:09.486794 22644 net.cpp:148] Top shape: 256 96 55 55 (74342400)
I0316 09:48:09.486801 22644 net.cpp:156] Memory required for data: 1050406912
I0316 09:48:09.486810 22644 layer_factory.hpp:77] Creating layer pool1
I0316 09:48:09.486824 22644 net.cpp:91] Creating Layer pool1
I0316 09:48:09.486832 22644 net.cpp:425] pool1 <- norm1
I0316 09:48:09.486841 22644 net.cpp:399] pool1 -> pool1
I0316 09:48:09.486865 22644 net.cpp:141] Setting up pool1
I0316 09:48:09.486877 22644 net.cpp:148] Top shape: 256 96 27 27 (17915904)
I0316 09:48:09.486886 22644 net.cpp:156] Memory required for data: 1122070528
I0316 09:48:09.486894 22644 layer_factory.hpp:77] Creating layer conv2
I0316 09:48:09.486939 22644 net.cpp:91] Creating Layer conv2
I0316 09:48:09.486949 22644 net.cpp:425] conv2 <- pool1
I0316 09:48:09.486960 22644 net.cpp:399] conv2 -> conv2
I0316 09:48:09.499513 22644 net.cpp:141] Setting up conv2
I0316 09:48:09.499567 22644 net.cpp:148] Top shape: 256 256 27 27 (47775744)
I0316 09:48:09.499573 22644 net.cpp:156] Memory required for data: 1313173504
I0316 09:48:09.499594 22644 layer_factory.hpp:77] Creating layer relu2
I0316 09:48:09.499621 22644 net.cpp:91] Creating Layer relu2
I0316 09:48:09.499634 22644 net.cpp:425] relu2 <- conv2
I0316 09:48:09.499656 22644 net.cpp:386] relu2 -> conv2 (in-place)
I0316 09:48:09.499673 22644 net.cpp:141] Setting up relu2
I0316 09:48:09.499683 22644 net.cpp:148] Top shape: 256 256 27 27 (47775744)
I0316 09:48:09.499691 22644 net.cpp:156] Memory required for data: 1504276480
I0316 09:48:09.499699 22644 layer_factory.hpp:77] Creating layer norm2
I0316 09:48:09.499713 22644 net.cpp:91] Creating Layer norm2
I0316 09:48:09.499721 22644 net.cpp:425] norm2 <- conv2
I0316 09:48:09.499729 22644 net.cpp:399] norm2 -> norm2
I0316 09:48:09.499747 22644 net.cpp:141] Setting up norm2
I0316 09:48:09.499758 22644 net.cpp:148] Top shape: 256 256 27 27 (47775744)
I0316 09:48:09.499764 22644 net.cpp:156] Memory required for data: 1695379456
I0316 09:48:09.499773 22644 layer_factory.hpp:77] Creating layer pool2
I0316 09:48:09.499788 22644 net.cpp:91] Creating Layer pool2
I0316 09:48:09.499795 22644 net.cpp:425] pool2 <- norm2
I0316 09:48:09.499805 22644 net.cpp:399] pool2 -> pool2
I0316 09:48:09.499825 22644 net.cpp:141] Setting up pool2
I0316 09:48:09.499836 22644 net.cpp:148] Top shape: 256 256 13 13 (11075584)
I0316 09:48:09.499845 22644 net.cpp:156] Memory required for data: 1739681792
I0316 09:48:09.499852 22644 layer_factory.hpp:77] Creating layer conv3
I0316 09:48:09.499871 22644 net.cpp:91] Creating Layer conv3
I0316 09:48:09.499878 22644 net.cpp:425] conv3 <- pool2
I0316 09:48:09.499888 22644 net.cpp:399] conv3 -> conv3
I0316 09:48:09.536651 22644 net.cpp:141] Setting up conv3
I0316 09:48:09.536732 22644 net.cpp:148] Top shape: 256 384 13 13 (16613376)
I0316 09:48:09.536739 22644 net.cpp:156] Memory required for data: 1806135296
I0316 09:48:09.536762 22644 layer_factory.hpp:77] Creating layer relu3
I0316 09:48:09.536782 22644 net.cpp:91] Creating Layer relu3
I0316 09:48:09.536794 22644 net.cpp:425] relu3 <- conv3
I0316 09:48:09.536808 22644 net.cpp:386] relu3 -> conv3 (in-place)
I0316 09:48:09.536823 22644 net.cpp:141] Setting up relu3
I0316 09:48:09.536834 22644 net.cpp:148] Top shape: 256 384 13 13 (16613376)
I0316 09:48:09.536839 22644 net.cpp:156] Memory required for data: 1872588800
I0316 09:48:09.536844 22644 layer_factory.hpp:77] Creating layer conv4
I0316 09:48:09.536865 22644 net.cpp:91] Creating Layer conv4
I0316 09:48:09.536873 22644 net.cpp:425] conv4 <- conv3
I0316 09:48:09.536885 22644 net.cpp:399] conv4 -> conv4
I0316 09:48:09.564483 22644 net.cpp:141] Setting up conv4
I0316 09:48:09.564543 22644 net.cpp:148] Top shape: 256 384 13 13 (16613376)
I0316 09:48:09.564550 22644 net.cpp:156] Memory required for data: 1939042304
I0316 09:48:09.564565 22644 layer_factory.hpp:77] Creating layer relu4
I0316 09:48:09.564582 22644 net.cpp:91] Creating Layer relu4
I0316 09:48:09.564590 22644 net.cpp:425] relu4 <- conv4
I0316 09:48:09.564604 22644 net.cpp:386] relu4 -> conv4 (in-place)
I0316 09:48:09.564620 22644 net.cpp:141] Setting up relu4
I0316 09:48:09.564649 22644 net.cpp:148] Top shape: 256 384 13 13 (16613376)
I0316 09:48:09.564666 22644 net.cpp:156] Memory required for data: 2005495808
I0316 09:48:09.564682 22644 layer_factory.hpp:77] Creating layer conv5
I0316 09:48:09.564710 22644 net.cpp:91] Creating Layer conv5
I0316 09:48:09.564719 22644 net.cpp:425] conv5 <- conv4
I0316 09:48:09.564731 22644 net.cpp:399] conv5 -> conv5
I0316 09:48:09.583051 22644 net.cpp:141] Setting up conv5
I0316 09:48:09.583122 22644 net.cpp:148] Top shape: 256 256 13 13 (11075584)
I0316 09:48:09.583129 22644 net.cpp:156] Memory required for data: 2049798144
I0316 09:48:09.583207 22644 layer_factory.hpp:77] Creating layer relu5
I0316 09:48:09.583245 22644 net.cpp:91] Creating Layer relu5
I0316 09:48:09.583258 22644 net.cpp:425] relu5 <- conv5
I0316 09:48:09.583274 22644 net.cpp:386] relu5 -> conv5 (in-place)
I0316 09:48:09.583290 22644 net.cpp:141] Setting up relu5
I0316 09:48:09.583298 22644 net.cpp:148] Top shape: 256 256 13 13 (11075584)
I0316 09:48:09.583303 22644 net.cpp:156] Memory required for data: 2094100480
I0316 09:48:09.583312 22644 layer_factory.hpp:77] Creating layer pool5
I0316 09:48:09.583324 22644 net.cpp:91] Creating Layer pool5
I0316 09:48:09.583331 22644 net.cpp:425] pool5 <- conv5
I0316 09:48:09.583341 22644 net.cpp:399] pool5 -> pool5
I0316 09:48:09.583358 22644 net.cpp:141] Setting up pool5
I0316 09:48:09.583367 22644 net.cpp:148] Top shape: 256 256 6 6 (2359296)
I0316 09:48:09.583372 22644 net.cpp:156] Memory required for data: 2103537664
I0316 09:48:09.583377 22644 layer_factory.hpp:77] Creating layer fc6
I0316 09:48:09.583405 22644 net.cpp:91] Creating Layer fc6
I0316 09:48:09.583412 22644 net.cpp:425] fc6 <- pool5
I0316 09:48:09.583426 22644 net.cpp:399] fc6 -> fc6
I0316 09:48:09.644240 22644 kronecker_product_layer.cpp:119] UNITTEST-FWD: 28 73 -56 -146
I0316 09:48:09.644328 22644 kronecker_product_layer.cpp:125] UNITTEST-DA: 164 101 38 164 101 38
I0316 09:48:09.644354 22644 kronecker_product_layer.cpp:133] UNITTEST-DB: -6 -5 -4 -6 -5 -4
I0316 09:48:09.644378 22644 kronecker_product_layer.cpp:141] UNITTEST-Dx: -5 -7 -9 5 7 9 -5 -7 -9
I0316 09:48:09.644394 22644 kronecker_product_layer.cpp:67] Init Succeed 4096x9216
I0316 09:48:09.644421 22644 net.cpp:141] Setting up fc6
I0316 09:48:09.644438 22644 net.cpp:148] Top shape: 256 4096 (1048576)
I0316 09:48:09.644443 22644 net.cpp:156] Memory required for data: 2107731968
I0316 09:48:09.644465 22644 layer_factory.hpp:77] Creating layer relu6
I0316 09:48:09.644489 22644 net.cpp:91] Creating Layer relu6
I0316 09:48:09.644498 22644 net.cpp:425] relu6 <- fc6
I0316 09:48:09.644511 22644 net.cpp:386] relu6 -> fc6 (in-place)
I0316 09:48:09.644527 22644 net.cpp:141] Setting up relu6
I0316 09:48:09.644536 22644 net.cpp:148] Top shape: 256 4096 (1048576)
I0316 09:48:09.644541 22644 net.cpp:156] Memory required for data: 2111926272
I0316 09:48:09.644546 22644 layer_factory.hpp:77] Creating layer fc7
I0316 09:48:09.644562 22644 net.cpp:91] Creating Layer fc7
I0316 09:48:09.644568 22644 net.cpp:425] fc7 <- fc6
I0316 09:48:09.644578 22644 net.cpp:399] fc7 -> fc7
I0316 09:48:09.644954 22644 kronecker_product_layer.cpp:119] UNITTEST-FWD: 28 73 -56 -146
I0316 09:48:09.644971 22644 kronecker_product_layer.cpp:125] UNITTEST-DA: 164 101 38 164 101 38
I0316 09:48:09.644984 22644 kronecker_product_layer.cpp:133] UNITTEST-DB: -6 -5 -4 -6 -5 -4
I0316 09:48:09.644994 22644 kronecker_product_layer.cpp:141] UNITTEST-Dx: -5 -7 -9 5 7 9 -5 -7 -9
I0316 09:48:09.645005 22644 kronecker_product_layer.cpp:67] Init Succeed 4096x4096
I0316 09:48:09.645016 22644 net.cpp:141] Setting up fc7
I0316 09:48:09.645026 22644 net.cpp:148] Top shape: 256 4096 (1048576)
I0316 09:48:09.645035 22644 net.cpp:156] Memory required for data: 2116120576
I0316 09:48:09.645047 22644 layer_factory.hpp:77] Creating layer relu7
I0316 09:48:09.645058 22644 net.cpp:91] Creating Layer relu7
I0316 09:48:09.645064 22644 net.cpp:425] relu7 <- fc7
I0316 09:48:09.645072 22644 net.cpp:386] relu7 -> fc7 (in-place)
I0316 09:48:09.645083 22644 net.cpp:141] Setting up relu7
I0316 09:48:09.645092 22644 net.cpp:148] Top shape: 256 4096 (1048576)
I0316 09:48:09.645098 22644 net.cpp:156] Memory required for data: 2120314880
I0316 09:48:09.645107 22644 layer_factory.hpp:77] Creating layer fc8
I0316 09:48:09.645122 22644 net.cpp:91] Creating Layer fc8
I0316 09:48:09.645129 22644 net.cpp:425] fc8 <- fc7
I0316 09:48:09.645140 22644 net.cpp:399] fc8 -> fc8
I0316 09:48:09.819532 22644 net.cpp:141] Setting up fc8
I0316 09:48:09.819599 22644 net.cpp:148] Top shape: 256 1000 (256000)
I0316 09:48:09.819609 22644 net.cpp:156] Memory required for data: 2121338880
I0316 09:48:09.819640 22644 layer_factory.hpp:77] Creating layer loss
I0316 09:48:09.819716 22644 net.cpp:91] Creating Layer loss
I0316 09:48:09.819730 22644 net.cpp:425] loss <- fc8
I0316 09:48:09.819741 22644 net.cpp:425] loss <- label
I0316 09:48:09.819757 22644 net.cpp:399] loss -> loss
I0316 09:48:09.819785 22644 layer_factory.hpp:77] Creating layer loss
…
I0316 09:48:09.821611 22644 net.cpp:313] The NetState phase (1) differed from the phase (0) specified by a rule in layer data
I0316 09:48:09.821879 22644 net.cpp:49] Initializing net from parameters: 
name: "AlexNet"
state {
  phase: TEST
}
layer {
  name: "data"
  type: "Data"
  top: "data"
  top: "label"
  include {
    phase: TEST
  }
  transform_param {
    mirror: false
    crop_size: 227
    mean_file: "data/ilsvrc12/imagenet_mean.binaryproto"
  }
  data_param {
    source: "examples/imagenet/ilsvrc12_val_lmdb"
    batch_size: 50
    backend: LMDB
  }
}
layer {
  name: "conv1"
  type: "Convolution"
  bottom: "data"
  top: "conv1"
  param {
    lr_mult: 1
    decay_mult: 1
  }
  param {
    lr_mult: 2
    decay_mult: 0
  }
  convolution_param {
    num_output: 96
    kernel_size: 11
    stride: 4
    weight_filler {
      type: "gaussian"
      std: 0.01
    }
    bias_filler {
      type: "constant"
      value: 0
    }
  }
}
layer {
  name: "relu1"
  type: "ReLU"
  bottom: "conv1"
  top: "conv1"
}
layer {
  name: "norm1"
  type: "LRN"
  bottom: "conv1"
  top: "norm1"
  lrn_param {
    local_size: 5
    alpha: 0.0001
    beta: 0.75
  }
}
layer {
  name: "pool1"
  type: "Pooling"
  bottom: "norm1"
  top: "pool1"
  pooling_param {
    pool: MAX
    kernel_size: 3
    stride: 2
  }
}
layer {
  name: "conv2"
  type: "Convolution"
  bottom: "pool1"
  top: "conv2"
  param {
    lr_mult: 1
    decay_mult: 1
  }
  param {
    lr_mult: 2
    decay_mult: 0
  }
  convolution_param {
    num_output: 256
    pad: 2
    kernel_size: 5
    group: 2
    weight_filler {
      type: "gaussian"
      std: 0.01
    }
    bias_filler {
      type: "constant"
      value: 0.1
    }
  }
}
layer {
  name: "relu2"
  type: "ReLU"
  bottom: "conv2"
  top: "conv2"
}
layer {
  name: "norm2"
  type: "LRN"
  bottom: "conv2"
  top: "norm2"
  lrn_param {
    local_size: 5
    alpha: 0.0001
    beta: 0.75
  }
}
layer {
  name: "pool2"
  type: "Pooling"
  bottom: "norm2"
  top: "pool2"
  pooling_param {
    pool: MAX
    kernel_size: 3
    stride: 2
  }
}
layer {
  name: "conv3"
  type: "Convolution"
  bottom: "pool2"
  top: "conv3"
  param {
    lr_mult: 1
    decay_mult: 1
  }
  param {
    lr_mult: 2
    decay_mult: 0
  }
  convolution_param {
    num_output: 384
    pad: 1
    kernel_size: 3
    weight_filler {
      type: "gaussian"
      std: 0.01
    }
    bias_filler {
      type: "constant"
      value: 0
    }
  }
}
layer {
  name: "relu3"
  type: "ReLU"
  bottom: "conv3"
  top: "conv3"
}
layer {
  name: "conv4"
  type: "Convolution"
  bottom: "conv3"
  top: "conv4"
  param {
    lr_mult: 1
    decay_mult: 1
  }
  param {
    lr_mult: 2
    decay_mult: 0
  }
  convolution_param {
    num_output: 384
    pad: 1
    kernel_size: 3
    group: 2
    weight_filler {
      type: "gaussian"
      std: 0.01
    }
    bias_filler {
      type: "constant"
      value: 0.1
    }
  }
}
layer {
  name: "relu4"
  type: "ReLU"
  bottom: "conv4"
  top: "conv4"
}
layer {
  name: "conv5"
  type: "Convolution"
  bottom: "conv4"
  top: "conv5"
  param {
    lr_mult: 1
    decay_mult: 1
  }
  param {
    lr_mult: 2
    decay_mult: 0
  }
  convolution_param {
    num_output: 256
    pad: 1
    kernel_size: 3
    group: 2
    weight_filler {
      type: "gaussian"
      std: 0.01
    }
    bias_filler {
      type: "constant"
      value: 0.1
    }
  }
}
layer {
  name: "relu5"
  type: "ReLU"
  bottom: "conv5"
  top: "conv5"
}
layer {
  name: "pool5"
  type: "Pooling"
  bottom: "conv5"
  top: "pool5"
  pooling_param {
    pool: MAX
    kernel_size: 3
    stride: 2
  }
}
layer {
  name: "fc6"
  type: "KroneckerProduct"
  bottom: "pool5"
  top: "fc6"
  param {
    lr_mult: 1
    decay_mult: 1
  }
  param {
    lr_mult: 2
    decay_mult: 0
  }
  kronecker_product_param {
    num_output: 4096
    weight_filler {
      type: "gaussian"
      std: 0.005
    }
    bias_filler {
      type: "constant"
      value: 0.1
    }
  }
}
layer {
  name: "relu6"
  type: "ReLU"
  bottom: "fc6"
  top: "fc6"
}
layer {
  name: "fc7"
  type: "KroneckerProduct"
  bottom: "fc6"
  top: "fc7"
  param {
    lr_mult: 1
    decay_mult: 1
  }
  param {
    lr_mult: 2
    decay_mult: 0
  }
  kronecker_product_param {
    num_output: 4096
    weight_filler {
      type: "gaussian"
      std: 0.005
    }
    bias_filler {
      type: "constant"
      value: 0.1
    }
  }
}
layer {
  name: "relu7"
  type: "ReLU"
  bottom: "fc7"
  top: "fc7"
}
layer {
  name: "fc8"
  type: "InnerProduct"
  bottom: "fc7"
  top: "fc8"
  param {
    lr_mult: 1
    decay_mult: 1
  }
  param {
    lr_mult: 2
    decay_mult: 0
  }
  inner_product_param {
    num_output: 1000
    weight_filler {
      type: "gaussian"
      std: 0.01
    }
    bias_filler {
      type: "constant"
      value: 0
    }
  }
}
layer {
  name: "accuracy"
  type: "Accuracy"
  bottom: "fc8"
  bottom: "label"
  top: "accuracy"
  include {
    phase: TEST
  }
}
layer {
  name: "loss"
  type: "SoftmaxWithLoss"
  bottom: "fc8"
  bottom: "label"
  top: "loss"
}
I0316 09:48:09.822042 22644 layer_factory.hpp:77] Creating layer data
I0316 09:48:09.822176 22644 net.cpp:91] Creating Layer data
I0316 09:48:09.822190 22644 net.cpp:399] data -> data
I0316 09:48:09.822204 22644 net.cpp:399] data -> label
I0316 09:48:09.822217 22644 data_transformer.cpp:25] Loading mean file from: data/ilsvrc12/imagenet_mean.binaryproto
I0316 09:48:09.822351 22650 db_lmdb.cpp:38] Opened lmdb examples/imagenet/ilsvrc12_val_lmdb
I0316 09:48:09.824374 22644 data_layer.cpp:41] output data size: 50,3,227,227
I0316 09:48:09.875092 22644 net.cpp:141] Setting up data
I0316 09:48:09.875170 22644 net.cpp:148] Top shape: 50 3 227 227 (7729350)
I0316 09:48:09.875243 22644 net.cpp:148] Top shape: 50 (50)
I0316 09:48:09.875259 22644 net.cpp:156] Memory required for data: 30917600
I0316 09:48:09.875272 22644 layer_factory.hpp:77] Creating layer label_data_1_split
I0316 09:48:09.875300 22644 net.cpp:91] Creating Layer label_data_1_split
I0316 09:48:09.875310 22644 net.cpp:425] label_data_1_split <- label
I0316 09:48:09.875325 22644 net.cpp:399] label_data_1_split -> label_data_1_split_0
I0316 09:48:09.875363 22644 net.cpp:399] label_data_1_split -> label_data_1_split_1
I0316 09:48:09.875393 22644 net.cpp:141] Setting up label_data_1_split
I0316 09:48:09.875406 22644 net.cpp:148] Top shape: 50 (50)
I0316 09:48:09.875416 22644 net.cpp:148] Top shape: 50 (50)
I0316 09:48:09.875425 22644 net.cpp:156] Memory required for data: 30918000
I0316 09:48:09.875432 22644 layer_factory.hpp:77] Creating layer conv1
I0316 09:48:09.875457 22644 net.cpp:91] Creating Layer conv1
I0316 09:48:09.875464 22644 net.cpp:425] conv1 <- data
I0316 09:48:09.875509 22644 net.cpp:399] conv1 -> conv1
I0316 09:48:09.877032 22644 net.cpp:141] Setting up conv1
I0316 09:48:09.877048 22644 net.cpp:148] Top shape: 50 96 55 55 (14520000)
I0316 09:48:09.877053 22644 net.cpp:156] Memory required for data: 88998000
I0316 09:48:09.877074 22644 layer_factory.hpp:77] Creating layer relu1
I0316 09:48:09.877086 22644 net.cpp:91] Creating Layer relu1
I0316 09:48:09.877092 22644 net.cpp:425] relu1 <- conv1
I0316 09:48:09.877100 22644 net.cpp:386] relu1 -> conv1 (in-place)
I0316 09:48:09.877111 22644 net.cpp:141] Setting up relu1
I0316 09:48:09.877120 22644 net.cpp:148] Top shape: 50 96 55 55 (14520000)
I0316 09:48:09.877128 22644 net.cpp:156] Memory required for data: 147078000
I0316 09:48:09.877135 22644 layer_factory.hpp:77] Creating layer norm1
I0316 09:48:09.877148 22644 net.cpp:91] Creating Layer norm1
I0316 09:48:09.877156 22644 net.cpp:425] norm1 <- conv1
I0316 09:48:09.877164 22644 net.cpp:399] norm1 -> norm1
I0316 09:48:09.877182 22644 net.cpp:141] Setting up norm1
I0316 09:48:09.877192 22644 net.cpp:148] Top shape: 50 96 55 55 (14520000)
I0316 09:48:09.877199 22644 net.cpp:156] Memory required for data: 205158000
I0316 09:48:09.877204 22644 layer_factory.hpp:77] Creating layer pool1
I0316 09:48:09.877219 22644 net.cpp:91] Creating Layer pool1
I0316 09:48:09.877228 22644 net.cpp:425] pool1 <- norm1
I0316 09:48:09.877236 22644 net.cpp:399] pool1 -> pool1
I0316 09:48:09.877257 22644 net.cpp:141] Setting up pool1
I0316 09:48:09.877266 22644 net.cpp:148] Top shape: 50 96 27 27 (3499200)
I0316 09:48:09.877271 22644 net.cpp:156] Memory required for data: 219154800
I0316 09:48:09.877279 22644 layer_factory.hpp:77] Creating layer conv2
I0316 09:48:09.877295 22644 net.cpp:91] Creating Layer conv2
I0316 09:48:09.877302 22644 net.cpp:425] conv2 <- pool1
I0316 09:48:09.877313 22644 net.cpp:399] conv2 -> conv2
I0316 09:48:09.889791 22644 net.cpp:141] Setting up conv2
I0316 09:48:09.889811 22644 net.cpp:148] Top shape: 50 256 27 27 (9331200)
I0316 09:48:09.889817 22644 net.cpp:156] Memory required for data: 256479600
I0316 09:48:09.889830 22644 layer_factory.hpp:77] Creating layer relu2
I0316 09:48:09.889840 22644 net.cpp:91] Creating Layer relu2
I0316 09:48:09.889850 22644 net.cpp:425] relu2 <- conv2
I0316 09:48:09.889861 22644 net.cpp:386] relu2 -> conv2 (in-place)
I0316 09:48:09.889873 22644 net.cpp:141] Setting up relu2
I0316 09:48:09.889880 22644 net.cpp:148] Top shape: 50 256 27 27 (9331200)
I0316 09:48:09.889885 22644 net.cpp:156] Memory required for data: 293804400
I0316 09:48:09.889894 22644 layer_factory.hpp:77] Creating layer norm2
I0316 09:48:09.889907 22644 net.cpp:91] Creating Layer norm2
I0316 09:48:09.889914 22644 net.cpp:425] norm2 <- conv2
I0316 09:48:09.889924 22644 net.cpp:399] norm2 -> norm2
I0316 09:48:09.889936 22644 net.cpp:141] Setting up norm2
I0316 09:48:09.889945 22644 net.cpp:148] Top shape: 50 256 27 27 (9331200)
I0316 09:48:09.889950 22644 net.cpp:156] Memory required for data: 331129200
I0316 09:48:09.889955 22644 layer_factory.hpp:77] Creating layer pool2
I0316 09:48:09.889964 22644 net.cpp:91] Creating Layer pool2
I0316 09:48:09.889986 22644 net.cpp:425] pool2 <- norm2
I0316 09:48:09.889997 22644 net.cpp:399] pool2 -> pool2
I0316 09:48:09.890010 22644 net.cpp:141] Setting up pool2
I0316 09:48:09.890019 22644 net.cpp:148] Top shape: 50 256 13 13 (2163200)
I0316 09:48:09.890024 22644 net.cpp:156] Memory required for data: 339782000
I0316 09:48:09.890029 22644 layer_factory.hpp:77] Creating layer conv3
I0316 09:48:09.890050 22644 net.cpp:91] Creating Layer conv3
I0316 09:48:09.890058 22644 net.cpp:425] conv3 <- pool2
I0316 09:48:09.890070 22644 net.cpp:399] conv3 -> conv3
I0316 09:48:09.948019 22644 net.cpp:141] Setting up conv3
I0316 09:48:09.948065 22644 net.cpp:148] Top shape: 50 384 13 13 (3244800)
I0316 09:48:09.948072 22644 net.cpp:156] Memory required for data: 352761200
I0316 09:48:09.948094 22644 layer_factory.hpp:77] Creating layer relu3
I0316 09:48:09.948112 22644 net.cpp:91] Creating Layer relu3
I0316 09:48:09.948122 22644 net.cpp:425] relu3 <- conv3
I0316 09:48:09.948135 22644 net.cpp:386] relu3 -> conv3 (in-place)
I0316 09:48:09.948158 22644 net.cpp:141] Setting up relu3
I0316 09:48:09.948166 22644 net.cpp:148] Top shape: 50 384 13 13 (3244800)
I0316 09:48:09.948173 22644 net.cpp:156] Memory required for data: 365740400
I0316 09:48:09.948181 22644 layer_factory.hpp:77] Creating layer conv4
I0316 09:48:09.948210 22644 net.cpp:91] Creating Layer conv4
I0316 09:48:09.948217 22644 net.cpp:425] conv4 <- conv3
I0316 09:48:09.948230 22644 net.cpp:399] conv4 -> conv4
I0316 09:48:09.975286 22644 net.cpp:141] Setting up conv4
I0316 09:48:09.975354 22644 net.cpp:148] Top shape: 50 384 13 13 (3244800)
I0316 09:48:09.975364 22644 net.cpp:156] Memory required for data: 378719600
I0316 09:48:09.975390 22644 layer_factory.hpp:77] Creating layer relu4
I0316 09:48:09.975424 22644 net.cpp:91] Creating Layer relu4
I0316 09:48:09.975438 22644 net.cpp:425] relu4 <- conv4
I0316 09:48:09.975461 22644 net.cpp:386] relu4 -> conv4 (in-place)
I0316 09:48:09.975489 22644 net.cpp:141] Setting up relu4
I0316 09:48:09.975499 22644 net.cpp:148] Top shape: 50 384 13 13 (3244800)
I0316 09:48:09.975505 22644 net.cpp:156] Memory required for data: 391698800
I0316 09:48:09.975510 22644 layer_factory.hpp:77] Creating layer conv5
I0316 09:48:09.975534 22644 net.cpp:91] Creating Layer conv5
I0316 09:48:09.975548 22644 net.cpp:425] conv5 <- conv4
I0316 09:48:09.975569 22644 net.cpp:399] conv5 -> conv5
I0316 09:48:09.993664 22644 net.cpp:141] Setting up conv5
I0316 09:48:09.993690 22644 net.cpp:148] Top shape: 50 256 13 13 (2163200)
I0316 09:48:09.993696 22644 net.cpp:156] Memory required for data: 400351600
I0316 09:48:09.993718 22644 layer_factory.hpp:77] Creating layer relu5
I0316 09:48:09.993736 22644 net.cpp:91] Creating Layer relu5
I0316 09:48:09.993744 22644 net.cpp:425] relu5 <- conv5
I0316 09:48:09.993757 22644 net.cpp:386] relu5 -> conv5 (in-place)
I0316 09:48:09.993773 22644 net.cpp:141] Setting up relu5
I0316 09:48:09.993782 22644 net.cpp:148] Top shape: 50 256 13 13 (2163200)
I0316 09:48:09.993788 22644 net.cpp:156] Memory required for data: 409004400
I0316 09:48:09.993794 22644 layer_factory.hpp:77] Creating layer pool5
I0316 09:48:09.993810 22644 net.cpp:91] Creating Layer pool5
I0316 09:48:09.993819 22644 net.cpp:425] pool5 <- conv5
I0316 09:48:09.993829 22644 net.cpp:399] pool5 -> pool5
I0316 09:48:09.993849 22644 net.cpp:141] Setting up pool5
I0316 09:48:09.993861 22644 net.cpp:148] Top shape: 50 256 6 6 (460800)
I0316 09:48:09.993866 22644 net.cpp:156] Memory required for data: 410847600
I0316 09:48:09.993871 22644 layer_factory.hpp:77] Creating layer fc6
I0316 09:48:09.993897 22644 net.cpp:91] Creating Layer fc6
I0316 09:48:09.993903 22644 net.cpp:425] fc6 <- pool5
I0316 09:48:09.993919 22644 net.cpp:399] fc6 -> fc6
I0316 09:48:09.994518 22644 kronecker_product_layer.cpp:119] UNITTEST-FWD: 28 73 -56 -146
I0316 09:48:09.994549 22644 kronecker_product_layer.cpp:125] UNITTEST-DA: 164 101 38 164 101 38
I0316 09:48:09.994562 22644 kronecker_product_layer.cpp:133] UNITTEST-DB: -6 -5 -4 -6 -5 -4
I0316 09:48:09.994599 22644 kronecker_product_layer.cpp:141] UNITTEST-Dx: -5 -7 -9 5 7 9 -5 -7 -9
I0316 09:48:09.994612 22644 kronecker_product_layer.cpp:67] Init Succeed 4096x9216
I0316 09:48:09.994623 22644 net.cpp:141] Setting up fc6
I0316 09:48:09.994632 22644 net.cpp:148] Top shape: 50 4096 (204800)
I0316 09:48:09.994640 22644 net.cpp:156] Memory required for data: 411666800
I0316 09:48:09.994652 22644 layer_factory.hpp:77] Creating layer relu6
I0316 09:48:09.994663 22644 net.cpp:91] Creating Layer relu6
I0316 09:48:09.994670 22644 net.cpp:425] relu6 <- fc6
I0316 09:48:09.994678 22644 net.cpp:386] relu6 -> fc6 (in-place)
I0316 09:48:09.994688 22644 net.cpp:141] Setting up relu6
I0316 09:48:09.994694 22644 net.cpp:148] Top shape: 50 4096 (204800)
I0316 09:48:09.994701 22644 net.cpp:156] Memory required for data: 412486000
I0316 09:48:09.994709 22644 layer_factory.hpp:77] Creating layer fc7
I0316 09:48:09.994721 22644 net.cpp:91] Creating Layer fc7
I0316 09:48:09.994729 22644 net.cpp:425] fc7 <- fc6
I0316 09:48:09.994740 22644 net.cpp:399] fc7 -> fc7
I0316 09:48:09.995110 22644 kronecker_product_layer.cpp:119] UNITTEST-FWD: 28 73 -56 -146
I0316 09:48:09.995126 22644 kronecker_product_layer.cpp:125] UNITTEST-DA: 164 101 38 164 101 38
I0316 09:48:09.995139 22644 kronecker_product_layer.cpp:133] UNITTEST-DB: -6 -5 -4 -6 -5 -4
I0316 09:48:09.995152 22644 kronecker_product_layer.cpp:141] UNITTEST-Dx: -5 -7 -9 5 7 9 -5 -7 -9
I0316 09:48:09.995163 22644 kronecker_product_layer.cpp:67] Init Succeed 4096x4096
I0316 09:48:09.995173 22644 net.cpp:141] Setting up fc7
I0316 09:48:09.995182 22644 net.cpp:148] Top shape: 50 4096 (204800)
I0316 09:48:09.995189 22644 net.cpp:156] Memory required for data: 413305200
I0316 09:48:09.995199 22644 layer_factory.hpp:77] Creating layer relu7
I0316 09:48:09.995210 22644 net.cpp:91] Creating Layer relu7
I0316 09:48:09.995224 22644 net.cpp:425] relu7 <- fc7
I0316 09:48:09.995234 22644 net.cpp:386] relu7 -> fc7 (in-place)
I0316 09:48:09.995242 22644 net.cpp:141] Setting up relu7
I0316 09:48:09.995249 22644 net.cpp:148] Top shape: 50 4096 (204800)
I0316 09:48:09.995254 22644 net.cpp:156] Memory required for data: 414124400
I0316 09:48:09.995260 22644 layer_factory.hpp:77] Creating layer fc8
I0316 09:48:09.995273 22644 net.cpp:91] Creating Layer fc8
I0316 09:48:09.995280 22644 net.cpp:425] fc8 <- fc7
I0316 09:48:09.995291 22644 net.cpp:399] fc8 -> fc8
I0316 09:48:10.248548 22644 net.cpp:141] Setting up fc8
I0316 09:48:10.248597 22644 net.cpp:148] Top shape: 50 1000 (50000)
I0316 09:48:10.248605 22644 net.cpp:156] Memory required for data: 414324400
I0316 09:48:10.248634 22644 layer_factory.hpp:77] Creating layer fc8_fc8_0_split
I0316 09:48:10.248654 22644 net.cpp:91] Creating Layer fc8_fc8_0_split
I0316 09:48:10.248666 22644 net.cpp:425] fc8_fc8_0_split <- fc8
I0316 09:48:10.248682 22644 net.cpp:399] fc8_fc8_0_split -> fc8_fc8_0_split_0
I0316 09:48:10.248698 22644 net.cpp:399] fc8_fc8_0_split -> fc8_fc8_0_split_1
I0316 09:48:10.248714 22644 net.cpp:141] Setting up fc8_fc8_0_split
I0316 09:48:10.248723 22644 net.cpp:148] Top shape: 50 1000 (50000)
I0316 09:48:10.248730 22644 net.cpp:148] Top shape: 50 1000 (50000)
I0316 09:48:10.248734 22644 net.cpp:156] Memory required for data: 414724400
I0316 09:48:10.248740 22644 layer_factory.hpp:77] Creating layer accuracy
I0316 09:48:10.248756 22644 net.cpp:91] Creating Layer accuracy
I0316 09:48:10.248764 22644 net.cpp:425] accuracy <- fc8_fc8_0_split_0
I0316 09:48:10.248770 22644 net.cpp:425] accuracy <- label_data_1_split_0
I0316 09:48:10.248781 22644 net.cpp:399] accuracy -> accuracy
…
